BertForSequenceClassification(
  (bert): BertModel(
    (embedding): Embedding(
      (word_embedding): TokenEmbedding(
        (embedding): Embedding(30522, 768)
      )
      (positional_encoding): PositionalEncoding()
      (token_type_embedding): TokenTypeEmbedding(
        (embedding): Embedding(2, 768)
      )
      (layer_norm): LayerNorm((768,), eps=1e-12, elementwise_affine=True)
      (dropout): Dropout(p=0.1, inplace=False)
    )
    (encoder): Encoder(
      (layers): ModuleList(
        (0): EncoderLayer(
          (self_attn): MultiHeadAttention(
            (fc_q): Linear(in_features=768, out_features=768, bias=True)
            (fc_k): Linear(in_features=768, out_features=768, bias=True)
            (fc_v): Linear(in_features=768, out_features=768, bias=True)
            (dropout): Dropout(p=0.1, inplace=False)
            (fc_concat): Linear(in_features=768, out_features=768, bias=True)
          )
          (norm1): LayerNorm((768,), eps=1e-12, elementwise_affine=True)
          (dropout1): Dropout(p=0.1, inplace=False)
          (ffn): PointwiseFeedForward(
            (fc_1): Linear(in_features=768, out_features=3072, bias=True)
            (gelu): GELU()
            (fc_2): Linear(in_features=3072, out_features=768, bias=True)
          )
          (norm2): LayerNorm((768,), eps=1e-12, elementwise_affine=True)
          (dropout2): Dropout(p=0.1, inplace=False)
        )
        (1): EncoderLayer(
          (self_attn): MultiHeadAttention(
            (fc_q): Linear(in_features=768, out_features=768, bias=True)
            (fc_k): Linear(in_features=768, out_features=768, bias=True)
            (fc_v): Linear(in_features=768, out_features=768, bias=True)
            (dropout): Dropout(p=0.1, inplace=False)
            (fc_concat): Linear(in_features=768, out_features=768, bias=True)
          )
          (norm1): LayerNorm((768,), eps=1e-12, elementwise_affine=True)
          (dropout1): Dropout(p=0.1, inplace=False)
          (ffn): PointwiseFeedForward(
            (fc_1): Linear(in_features=768, out_features=3072, bias=True)
            (gelu): GELU()
            (fc_2): Linear(in_features=3072, out_features=768, bias=True)
          )
          (norm2): LayerNorm((768,), eps=1e-12, elementwise_affine=True)
          (dropout2): Dropout(p=0.1, inplace=False)
        )
        (2): EncoderLayer(
          (self_attn): MultiHeadAttention(
            (fc_q): Linear(in_features=768, out_features=768, bias=True)
            (fc_k): Linear(in_features=768, out_features=768, bias=True)
            (fc_v): Linear(in_features=768, out_features=768, bias=True)
            (dropout): Dropout(p=0.1, inplace=False)
            (fc_concat): Linear(in_features=768, out_features=768, bias=True)
          )
          (norm1): LayerNorm((768,), eps=1e-12, elementwise_affine=True)
          (dropout1): Dropout(p=0.1, inplace=False)
          (ffn): PointwiseFeedForward(
            (fc_1): Linear(in_features=768, out_features=3072, bias=True)
            (gelu): GELU()
            (fc_2): Linear(in_features=3072, out_features=768, bias=True)
          )
          (norm2): LayerNorm((768,), eps=1e-12, elementwise_affine=True)
          (dropout2): Dropout(p=0.1, inplace=False)
        )
        (3): EncoderLayer(
          (self_attn): MultiHeadAttention(
            (fc_q): Linear(in_features=768, out_features=768, bias=True)
            (fc_k): Linear(in_features=768, out_features=768, bias=True)
            (fc_v): Linear(in_features=768, out_features=768, bias=True)
            (dropout): Dropout(p=0.1, inplace=False)
            (fc_concat): Linear(in_features=768, out_features=768, bias=True)
          )
          (norm1): LayerNorm((768,), eps=1e-12, elementwise_affine=True)
          (dropout1): Dropout(p=0.1, inplace=False)
          (ffn): PointwiseFeedForward(
            (fc_1): Linear(in_features=768, out_features=3072, bias=True)
            (gelu): GELU()
            (fc_2): Linear(in_features=3072, out_features=768, bias=True)
          )
          (norm2): LayerNorm((768,), eps=1e-12, elementwise_affine=True)
          (dropout2): Dropout(p=0.1, inplace=False)
        )
        (4): EncoderLayer(
          (self_attn): MultiHeadAttention(
            (fc_q): Linear(in_features=768, out_features=768, bias=True)
            (fc_k): Linear(in_features=768, out_features=768, bias=True)
            (fc_v): Linear(in_features=768, out_features=768, bias=True)
            (dropout): Dropout(p=0.1, inplace=False)
            (fc_concat): Linear(in_features=768, out_features=768, bias=True)
          )
          (norm1): LayerNorm((768,), eps=1e-12, elementwise_affine=True)
          (dropout1): Dropout(p=0.1, inplace=False)
          (ffn): PointwiseFeedForward(
            (fc_1): Linear(in_features=768, out_features=3072, bias=True)
            (gelu): GELU()
            (fc_2): Linear(in_features=3072, out_features=768, bias=True)
          )
          (norm2): LayerNorm((768,), eps=1e-12, elementwise_affine=True)
          (dropout2): Dropout(p=0.1, inplace=False)
        )
        (5): EncoderLayer(
          (self_attn): MultiHeadAttention(
            (fc_q): Linear(in_features=768, out_features=768, bias=True)
            (fc_k): Linear(in_features=768, out_features=768, bias=True)
            (fc_v): Linear(in_features=768, out_features=768, bias=True)
            (dropout): Dropout(p=0.1, inplace=False)
            (fc_concat): Linear(in_features=768, out_features=768, bias=True)
          )
          (norm1): LayerNorm((768,), eps=1e-12, elementwise_affine=True)
          (dropout1): Dropout(p=0.1, inplace=False)
          (ffn): PointwiseFeedForward(
            (fc_1): Linear(in_features=768, out_features=3072, bias=True)
            (gelu): GELU()
            (fc_2): Linear(in_features=3072, out_features=768, bias=True)
          )
          (norm2): LayerNorm((768,), eps=1e-12, elementwise_affine=True)
          (dropout2): Dropout(p=0.1, inplace=False)
        )
        (6): EncoderLayer(
          (self_attn): MultiHeadAttention(
            (fc_q): Linear(in_features=768, out_features=768, bias=True)
            (fc_k): Linear(in_features=768, out_features=768, bias=True)
            (fc_v): Linear(in_features=768, out_features=768, bias=True)
            (dropout): Dropout(p=0.1, inplace=False)
            (fc_concat): Linear(in_features=768, out_features=768, bias=True)
          )
          (norm1): LayerNorm((768,), eps=1e-12, elementwise_affine=True)
          (dropout1): Dropout(p=0.1, inplace=False)
          (ffn): PointwiseFeedForward(
            (fc_1): Linear(in_features=768, out_features=3072, bias=True)
            (gelu): GELU()
            (fc_2): Linear(in_features=3072, out_features=768, bias=True)
          )
          (norm2): LayerNorm((768,), eps=1e-12, elementwise_affine=True)
          (dropout2): Dropout(p=0.1, inplace=False)
        )
        (7): EncoderLayer(
          (self_attn): MultiHeadAttention(
            (fc_q): Linear(in_features=768, out_features=768, bias=True)
            (fc_k): Linear(in_features=768, out_features=768, bias=True)
            (fc_v): Linear(in_features=768, out_features=768, bias=True)
            (dropout): Dropout(p=0.1, inplace=False)
            (fc_concat): Linear(in_features=768, out_features=768, bias=True)
          )
          (norm1): LayerNorm((768,), eps=1e-12, elementwise_affine=True)
          (dropout1): Dropout(p=0.1, inplace=False)
          (ffn): PointwiseFeedForward(
            (fc_1): Linear(in_features=768, out_features=3072, bias=True)
            (gelu): GELU()
            (fc_2): Linear(in_features=3072, out_features=768, bias=True)
          )
          (norm2): LayerNorm((768,), eps=1e-12, elementwise_affine=True)
          (dropout2): Dropout(p=0.1, inplace=False)
        )
        (8): EncoderLayer(
          (self_attn): MultiHeadAttention(
            (fc_q): Linear(in_features=768, out_features=768, bias=True)
            (fc_k): Linear(in_features=768, out_features=768, bias=True)
            (fc_v): Linear(in_features=768, out_features=768, bias=True)
            (dropout): Dropout(p=0.1, inplace=False)
            (fc_concat): Linear(in_features=768, out_features=768, bias=True)
          )
          (norm1): LayerNorm((768,), eps=1e-12, elementwise_affine=True)
          (dropout1): Dropout(p=0.1, inplace=False)
          (ffn): PointwiseFeedForward(
            (fc_1): Linear(in_features=768, out_features=3072, bias=True)
            (gelu): GELU()
            (fc_2): Linear(in_features=3072, out_features=768, bias=True)
          )
          (norm2): LayerNorm((768,), eps=1e-12, elementwise_affine=True)
          (dropout2): Dropout(p=0.1, inplace=False)
        )
        (9): EncoderLayer(
          (self_attn): MultiHeadAttention(
            (fc_q): Linear(in_features=768, out_features=768, bias=True)
            (fc_k): Linear(in_features=768, out_features=768, bias=True)
            (fc_v): Linear(in_features=768, out_features=768, bias=True)
            (dropout): Dropout(p=0.1, inplace=False)
            (fc_concat): Linear(in_features=768, out_features=768, bias=True)
          )
          (norm1): LayerNorm((768,), eps=1e-12, elementwise_affine=True)
          (dropout1): Dropout(p=0.1, inplace=False)
          (ffn): PointwiseFeedForward(
            (fc_1): Linear(in_features=768, out_features=3072, bias=True)
            (gelu): GELU()
            (fc_2): Linear(in_features=3072, out_features=768, bias=True)
          )
          (norm2): LayerNorm((768,), eps=1e-12, elementwise_affine=True)
          (dropout2): Dropout(p=0.1, inplace=False)
        )
        (10): EncoderLayer(
          (self_attn): MultiHeadAttention(
            (fc_q): Linear(in_features=768, out_features=768, bias=True)
            (fc_k): Linear(in_features=768, out_features=768, bias=True)
            (fc_v): Linear(in_features=768, out_features=768, bias=True)
            (dropout): Dropout(p=0.1, inplace=False)
            (fc_concat): Linear(in_features=768, out_features=768, bias=True)
          )
          (norm1): LayerNorm((768,), eps=1e-12, elementwise_affine=True)
          (dropout1): Dropout(p=0.1, inplace=False)
          (ffn): PointwiseFeedForward(
            (fc_1): Linear(in_features=768, out_features=3072, bias=True)
            (gelu): GELU()
            (fc_2): Linear(in_features=3072, out_features=768, bias=True)
          )
          (norm2): LayerNorm((768,), eps=1e-12, elementwise_affine=True)
          (dropout2): Dropout(p=0.1, inplace=False)
        )
        (11): EncoderLayer(
          (self_attn): MultiHeadAttention(
            (fc_q): Linear(in_features=768, out_features=768, bias=True)
            (fc_k): Linear(in_features=768, out_features=768, bias=True)
            (fc_v): Linear(in_features=768, out_features=768, bias=True)
            (dropout): Dropout(p=0.1, inplace=False)
            (fc_concat): Linear(in_features=768, out_features=768, bias=True)
          )
          (norm1): LayerNorm((768,), eps=1e-12, elementwise_affine=True)
          (dropout1): Dropout(p=0.1, inplace=False)
          (ffn): PointwiseFeedForward(
            (fc_1): Linear(in_features=768, out_features=3072, bias=True)
            (gelu): GELU()
            (fc_2): Linear(in_features=3072, out_features=768, bias=True)
          )
          (norm2): LayerNorm((768,), eps=1e-12, elementwise_affine=True)
          (dropout2): Dropout(p=0.1, inplace=False)
        )
      )
    )
    (pooler): Pooler(
      (dense): Linear(in_features=768, out_features=768, bias=True)
      (tanh): Tanh()
    )
  )
  (dropout): Dropout(p=0.1, inplace=False)
  (classifier): Linear(in_features=768, out_features=3, bias=True)
)
